…
r":{"displayName":"Husein Adenwala","photoUrl":"https://lh3.googleusercontent.com/a-/AOh14GjtDMenN1E-yXzFgeGF9pO--NzwEw2pzDT7DhuRcQ=s64","userId":"04312473620162275929"}},"outputId":"1faefe04-5c40-4eb8-8c11-6e40d92b962e"},"source":["model2.summary()"],"execution_count":null,"outputs":[{"output_type":"stream","name":"stdout","text":["Model: \"sequential\"\n","_________________________________________________________________\n","Layer (type)                 Output Shape              Param #   \n","=================================================================\n","text_vectorization (TextVect (None, 60)                0         \n","_________________________________________________________________\n","embedding (Embedding)        (None, 60, 128)           384000    \n","_________________________________________________________________\n","bidirectional (Bidirectional (None, 256)               263168    \n","_________________________________________________________________\n","dropout (Dropout)            (None, 256)               0         \n","_________________________________________________________________\n","dense (Dense)                (None, 128)               32896     \n","_________________________________________________________________\n","dropout_1 (Dropout)          (None, 128)               0         \n","_________________________________________________________________\n","dense_1 (Dense)              (None, 4)                 516       \n","=================================================================\n","Total params: 680,580\n","Trainable params: 680,580\n","Non-trainable params: 0\n","_________________________________________________________________\n"]}]},{"cell_type":"code","metadata":{"id":"o01y6ZMVTF8J","scrolled":false,"colab":{"base_uri":"https://localhost:8080/","height":865},"executionInfo":{"status":"ok","
…
:{"displayName":"Husein Adenwala","photoUrl":"https://lh3.googleusercontent.com/a-/AOh14GjtDMenN1E-yXzFgeGF9pO--NzwEw2pzDT7DhuRcQ=s64","userId":"04312473620162275929"}},"outputId":"4c35940e-ce86-4eeb-aaa0-ece935b14f8a"},"source":["model2.summary()"],"execution_count":null,"outputs":[{"output_type":"stream","name":"stdout","text":["Model: \"sequential_1\"\n","_________________________________________________________________\n","Layer (type)                 Output Shape              Param #   \n","=================================================================\n","text_vectorization_1 (TextVe (None, 40)                0         \n","_________________________________________________________________\n","embedding_1 (Embedding)      (None, 40, 128)           384000    \n","_________________________________________________________________\n","bidirectional_1 (Bidirection (None, 256)               263168    \n","_________________________________________________________________\n","dropout_2 (Dropout)          (None, 256)               0         \n","_________________________________________________________________\n","dense_2 (Dense)              (None, 128)               32896     \n","_________________________________________________________________\n","dropout_3 (Dropout)          (None, 128)               0         \n","_________________________________________________________________\n","dense_3 (Dense)              (None, 4)                 516       \n","=================================================================\n","Total params: 680,580\n","Trainable params: 680,580\n","Non-trainable params: 0\n","_________________________________________________________________\n"]}]},{"cell_type":"code","metadata":{"scrolled":false,"id":"AfdDvfE_4x9x","colab":{"base_uri":"https://localhost:8080/"},"executionInfo":{"status":"ok","timestamp":16
…
