…
":{"displayName":"Husein Adenwala","photoUrl":"https://lh3.googleusercontent.com/a-/AOh14GjtDMenN1E-yXzFgeGF9pO--NzwEw2pzDT7DhuRcQ=s64","userId":"04312473620162275929"}},"outputId":"f4c7e1b7-2073-4331-d45d-5bd79c67b342"},"source":["model.summary()"],"execution_count":null,"outputs":[{"output_type":"stream","name":"stdout","text":["Model: \"sequential_2\"\n","_________________________________________________________________\n","Layer (type)                 Output Shape              Param #   \n","=================================================================\n","text_vectorization (TextVect (None, 40)                0         \n","_________________________________________________________________\n","embedding_6 (Embedding)      (None, 40, 64)            192000    \n","_________________________________________________________________\n","conv1d_6 (Conv1D)            (None, 40, 64)            12352     \n","_________________________________________________________________\n","max_pooling1d_2 (MaxPooling1 (None, 38, 64)            0         \n","_________________________________________________________________\n","flatten (Flatten)            (None, 2432)              0         \n","_________________________________________________________________\n","dense_4 (Dense)              (None, 64)                155712    \n","_________________________________________________________________\n","dense_5 (Dense)              (None, 4)                 260       \n","=================================================================\n","Total params: 360,324\n","Trainable params: 360,324\n","Non-trainable params: 0\n","_________________________________________________________________\n"]}]},{"cell_type":"code","metadata":{"id":"2o0oUFPAOjht","colab":{"base_uri":"https://localhost:8080/","height":865},"executionInfo":{"status":"ok","timestamp":163627
…
:{"displayName":"Husein Adenwala","photoUrl":"https://lh3.googleusercontent.com/a-/AOh14GjtDMenN1E-yXzFgeGF9pO--NzwEw2pzDT7DhuRcQ=s64","userId":"04312473620162275929"}},"outputId":"40134003-b948-43be-d35b-64c94335c1a2"},"source":["model2.summary()"],"execution_count":null,"outputs":[{"output_type":"stream","name":"stdout","text":["Model: \"sequential_3\"\n","_________________________________________________________________\n","Layer (type)                 Output Shape              Param #   \n","=================================================================\n","text_vectorization (TextVect (None, 40)                0         \n","_________________________________________________________________\n","embedding_7 (Embedding)      (None, 40, 64)            192000    \n","_________________________________________________________________\n","conv1d_7 (Conv1D)            (None, 40, 64)            12352     \n","_________________________________________________________________\n","max_pooling1d_3 (MaxPooling1 (None, 38, 64)            0         \n","_________________________________________________________________\n","conv1d_8 (Conv1D)            (None, 38, 128)           24704     \n","_________________________________________________________________\n","max_pooling1d_4 (MaxPooling1 (None, 36, 128)           0         \n","_________________________________________________________________\n","dropout (Dropout)            (None, 36, 128)           0         \n","_________________________________________________________________\n","conv1d_9 (Conv1D)            (None, 36, 256)           98560     \n","_________________________________________________________________\n","max_pooling1d_5 (MaxPooling1 (None, 34, 256)           0         \n","_________________________________________________________________\n","dropout_1 (Dropout)          (None, 34, 256)           0         \n","_________________________________________________________________\n","flatten_1 (Flatten)          (None, 8704)              0         \n","_________________________________________________________________\n","dense_6 (Dense)              (None, 256)               2228480   \n","_________________________________________________________________\n","dropout_2 (Dropout)          (None, 256)               0         \n","_________________________________________________________________\n","dense_7 (Dense)              (None, 256)               65792     \n","_________________________________________________________________\n","dense_8 (Dense)              (None, 4)                 1028      \n","=================================================================\n","Total params: 2,622,916\n","Trainable params: 2,622,916\n","Non-trainable params: 0\n","_________________________________________________________________\n"]}]},{"cell_type":"code","metadata":{"id":"o01y6ZMVTF8J","scrolled":false,"colab":{"base_uri":"https://localhost:8080/"},"executionInfo":{"status":"ok","timestamp"
…
