…
er":{"displayName":"Husein Adenwala","photoUrl":"https://lh3.googleusercontent.com/a-/AOh14GjtDMenN1E-yXzFgeGF9pO--NzwEw2pzDT7DhuRcQ=s64","userId":"04312473620162275929"}},"outputId":"67ed70c3-349e-4b75-ca21-d5a3f5355f6e"},"source":["model.summary()"],"execution_count":null,"outputs":[{"output_type":"stream","name":"stdout","text":["Model: \"sequential\"\n","_________________________________________________________________\n","Layer (type)                 Output Shape              Param #   \n","=================================================================\n","text_vectorization (TextVect (None, 60)                0         \n","_________________________________________________________________\n","embedding (Embedding)        (None, 60, 64)            5811200   \n","_________________________________________________________________\n","conv1d (Conv1D)              (None, 60, 64)            12352     \n","_________________________________________________________________\n","max_pooling1d (MaxPooling1D) (None, 20, 64)            0         \n","_________________________________________________________________\n","flatten (Flatten)            (None, 1280)              0         \n","_________________________________________________________________\n","dense (Dense)                (None, 128)               163968    \n","_________________________________________________________________\n","dense_1 (Dense)              (None, 4)                 516       \n","=================================================================\n","Total params: 5,988,036\n","Trainable params: 5,988,036\n","Non-trainable params: 0\n","_________________________________________________________________\n"]}]},{"cell_type":"code","metadata":{"id":"2o0oUFPAOjht","colab":{"base_uri":"https://localhost:8080/","height":865},"executionInfo":{"status":"ok","timestamp":16
…
{"displayName":"Husein Adenwala","photoUrl":"https://lh3.googleusercontent.com/a-/AOh14GjtDMenN1E-yXzFgeGF9pO--NzwEw2pzDT7DhuRcQ=s64","userId":"04312473620162275929"}},"outputId":"5f8bc706-dcdd-48d2-9a91-761073f7fa5a"},"source":["model2.summary()"],"execution_count":null,"outputs":[{"output_type":"stream","name":"stdout","text":["Model: \"sequential_16\"\n","_________________________________________________________________\n","Layer (type)                 Output Shape              Param #   \n","=================================================================\n","text_vectorization_4 (TextVe (None, 60)                0         \n","_________________________________________________________________\n","embedding_16 (Embedding)     (None, 60, 64)            5811200   \n","_________________________________________________________________\n","conv1d_18 (Conv1D)           (None, 60, 64)            12352     \n","_________________________________________________________________\n","max_pooling1d_18 (MaxPooling (None, 58, 64)            0         \n","_________________________________________________________________\n","conv1d_19 (Conv1D)           (None, 58, 128)           24704     \n","_________________________________________________________________\n","max_pooling1d_19 (MaxPooling (None, 56, 128)           0         \n","_________________________________________________________________\n","dropout_3 (Dropout)          (None, 56, 128)           0         \n","_________________________________________________________________\n","conv1d_20 (Conv1D)           (None, 56, 256)           98560     \n","_________________________________________________________________\n","max_pooling1d_20 (MaxPooling (None, 54, 256)           0         \n","_________________________________________________________________\n","dropout_4 (Dropout)          (None, 54, 256)           0         \n","_________________________________________________________________\n","flatten_18 (Flatten)         (None, 13824)             0         \n","_________________________________________________________________\n","dense_33 (Dense)             (None, 256)               3539200   \n","_________________________________________________________________\n","dropout_5 (Dropout)          (None, 256)               0         \n","_________________________________________________________________\n","dense_34 (Dense)             (None, 256)               65792     \n","_________________________________________________________________\n","dense_35 (Dense)             (None, 4)                 1028      \n","=================================================================\n","Total params: 9,552,836\n","Trainable params: 9,552,836\n","Non-trainable params: 0\n","_________________________________________________________________\n"]}]},{"cell_type":"code","metadata":{"id":"o01y6ZMVTF8J","scrolled":false,"colab":{"base_uri":"https://localhost:8080/","height":1000},"executionInfo":{"status":"o
…
